model_1.pt (torch, 16708 bytes, 10 tensors)

embedding.weight f4 [5, 8]
000000 a5 9a 08 3f 24 f8 e5 3e 1d 50 c1 3f 5f 50 8a be
       0.5336097 0.4491588 1.5102574 -0.27014443
000010 78 84 11 3e bb 9a ad bf 88 ee 53 bf f9 03 09 be
       0.14210689 -1.3562845 -0.82785845 -0.13380422
000020 f5 da 9f 3d 71 0f 93 3f 99 09 56 3f 6a fa 26 bd
       0.078054346 1.1489087 0.83608395 -0.040766157
000030 72 c3 a5 bd f2 08 ca 3d 48 27 93 be df 97 04 40
       -0.08093919 0.098649874 -0.28740907 2.0717695
000040 c1 b6 63 3f bb ce 90 be d5 97 d2 bf bf 69 5b be
       0.88950735 -0.28282723 -1.6452585 -0.21427058
000050 56 72 1a c0 2a a9 b1 3d 6a 7f 51 3f cf 39 44 3e
       -2.4132285 0.086748436 0.81835043 0.19162677
000060 66 01 b5 3f d2 b4 8b 3e 70 24 78 bf ee 21 80 bf
       1.4141052 0.27286392 -0.969306 -1.0010355
000070 7d 9a ec 3d ea 11 cb 3f 40 6a 71 bf 07 36 4f bf
       0.11552904 1.5864842 -0.9430275 -0.80941814
000080 da 2b 16 40 03 bd 4d be cb 28 bc bf f4 fd 18 bf
       2.3464265 -0.20091633 -1.4699949 -0.597625
000090 3b 96 d4 3f cb 5d 5b bf d1 64 18 c0 d9 cf 4e bd
       1.6608347 -0.8568999 -2.3811533 -0.050491188

lstm.weight_ih_l0 f4 [64, 8]
000000 34 72 0f be fb 5e f9 3d c0 7f 1c be 64 77 0b 3d
       -0.14008409 0.12176319 -0.15283108 0.034049407
000010 a1 19 3b be 8a 09 01 bd 13 79 9a bd a1 cc dd bc
       -0.18271495 -0.031503238 -0.07542624 -0.027075114
000020 b4 8e 25 be 1f 1e 4c be cd bb e2 bd 35 af 9f bc
       -0.16167718 -0.19933365 -0.110709764 -0.019492725
000030 69 63 18 3e 4d 35 7c 3e 18 cf 9a 3b ae e7 35 be
       0.14881672 0.24629708 0.0047243945 -0.1776416
000040 8c 27 6f be 49 ab 84 bd c1 10 0d be 33 13 92 3b
       -0.2335493 -0.064779826 -0.13775922 0.004457855
000050 72 d0 cb bd 4a 2c 27 be 10 67 5b be 6b 2a 90 3d
       -0.09951867 -0.16325489 -0.21426034 0.070393406
000060 81 f8 90 3e 13 d3 7a bd d2 5d 36 be 62 48 11 3e
       0.28314593 -0.061236452 -0.17809227 0.14187768
000070 8a 0a 02 be f1 c1 95 3d 79 fe 08 bd 1e 04 5f 3e
       -0.12699333 0.07312382 -0.03344581 0.21778914
000080 e0 8e a8 bd f2 11 1a 3e 3f 91 07 3e 7e ba b8 3d
       -0.08230376 0.15045908 0.13239 0.090199456
000090 f6 78 16 be 42 cb 65 3d 94 dc b2 3d 25 ca 4f be
       -0.1469458 0.056102045 0.08733478 -0.20291956
0000a0 3e 12 b8 3d 2f a3 c4 3d 66 1f 9e bc b4 c4 bc 3b
       0.089878544 0.09601437 -0.019302081 0.0057607535
0000b0 3b dd d2 3c f1 b9 69 be b7 b6 2c bd 81 2d 18 be
       0.025740257 -0.22824837 -0.042166438 -0.14861108
0000c0 11 ed 64 bc 05 71 2c be 9e ed 2a be 00 b5 f0 3d
       -0.013972537 -0.16839989 -0.16692206 0.11753273
0000d0 7a 7e 1d 3e 4d 54 3f 3e 4b a2 0a 3e f5 67 58 be
       0.15380278 0.18684502 0.13538472 -0.21133406
0000e0 f6 1f 0c be 5e 79 fe 3c 22 b3 89 be ad 8f 05 3e
       -0.13684067 0.031063732 -0.2689448 0.13043089
0000f0 49 ef 37 3e a3 52 e0 3d 91 d6 11 3c 7c c7 9e bd
       0.17962374 0.10953262 0.008901254 -0.077528924
000100 c3 15 7c 3d 3d cb 82 3d fa 97 b1 3c c9 86 83 bc
       0.06154419 0.06386421 0.021678913 -0.016055482
000110 04 29 6c 3e 95 7c 10 be cf 9a 95 3d 30 ac 73 3d
       0.23062521 -0.14110024 0.07304918 0.059490383
000120 fd 2a 1c be 08 b2 27 3e e2 00 11 3e 92 57 40 3e
       -0.15250774 0.16376507 0.14160493 0.18783405
000130 37 20 9c 3d 69 cd fb bc 31 30 24 be 5e 0e 50 3e
       0.07623332 -0.030737596 -0.16034009 0.2031798
000140 f9 31 19 be 51 2e 36 be 8b 9b 36 3e 62 b3 5a bd
       -0.1496047 -0.17791106 0.17832772 -0.05339373
000150 9e 1a b9 3d 2a c5 8e 3d 09 57 98 bd 0a 91 a4 3a
       0.0903828 0.069712 -0.07438476 0.0012555432
000160 0e 49 2b 3e 7c df d6 bb 42 de 0d bd dd 3a c0 bd
       0.16727087 -0.006557403 -0.03463579 -0.09386227
000170 d9 8d 7e be 87 f1 2a 3d fc 4e b7 bd 87 36 55 be
       -0.24858798 0.041734245 -0.08950612 -0.20821582
000180 cd a2 87 3e 15 0b 25 3e 58 a2 3a 3c 28 18 4b be
       0.26491395 0.16117509 0.011391245 -0.19833434
000190 22 9e 97 bd 6a c6 f6 3d 7b c0 f1 bd d7 0a 24 3e
       -0.07403208 0.12049563 -0.11804291 0.1601976
0001a0 d1 d9 98 3d 94 dc 93 3e 58 74 7f be d0 ea 0d bc
       0.0746342 0.28879225 -0.24946725 -0.008661941
0001b0 ee c2 51 be b5 07 3d 3e 9d d2 bd 3c 89 c4 26 3e
       -0.20484516 0.18459971 0.023171717 0.1628591
0001c0 62 c6 8f 3d 2c d2 9d 3e 87 11 9b 3e d8 a4 9c bd
       0.070202604 0.3082441 0.3028681 -0.07648629
0001d0 74 e9 31 3e e1 4f 84 ba fe 5b 8e be 25 17 35 3e
       0.17374212 -0.0010094607 -0.2780456 0.1768461
0001e0 6a 58 01 3e 6e 74 b9 3d 0f 21 da bb 42 0a 58 bd
       0.12631384 0.0905541 -0.006656773 -0.052744158
0001f0 d4 4f 11 be 59 9c 0d 3e d7 92 ff bd 36 36 1e 3d
       -0.14190608 0.13829173 -0.12479179 0.03862592
000200 38 2f 8c 3e 2b 73 7c 3e 75 93 be 3c fb 5d 67 bd
       0.27379775 0.24653308 0.023263672 -0.05648611
000210 e7 17 60 bd 10 10 2d 3e c1 a8 a7 3d 3f c3 33 3c
       -0.054710295 0.16900659 0.08186484 0.010971843
000220 07 5a a0 3e 4c 02 a8 3d 25 75 3e 3e 4c 7f 80 be
       0.31318685 0.08203563 0.18599375 -0.2509712
000230 41 c4 42 bd 22 fb 45 3e 5f 9b 25 3e 96 29 bf 3d
       -0.047550444 0.19334081 0.1617255 0.09334104
000240 ea 4f 91 3c da a9 36 bd dd 90 06 bc bf 82 37 bd
       0.017738301 -0.044595577 -0.008213249 -0.044802424
000250 ea 7c 33 be 40 40 c6 3d 95 05 7f 3d c4 8e 57 3e
       -0.1752812 0.096802235 0.062261183 0.21050555
000260 e2 f6 9a 3d 7f bb 2d be c3 0a 93 bd a4 40 a5 bd
       0.075666204 -0.16966055 -0.07179787 -0.0806897
000270 80 25 bd bd 26 de 22 3e 93 13 2f be fa c4 f2 3c
       -0.09235668 0.15905055 -0.1709731 0.029634941
000280 0e 81 08 be 50 ea 45 3d c6 64 09 be ca 31 56 be
       -0.1333048 0.04831916 -0.13417348 -0.2091743
000290 39 95 d2 3d da 2d a3 3d 97 cd 5f be 61 d8 38 be
       0.10282368 0.0796773 -0.2185577 -0.18051292
0002a0 23 84 38 3e 83 e9 75 3d e0 14 e5 3b 13 59 af 3d
       0.18019156 0.060037147 0.006991014 0.085619114
0002b0 1a a5 a6 3c ae 99 1a 3e b1 64 6b 3d 5c 69 1c 3e
       0.020342398 0.15097687 0.057469074 0.15274566
0002c0 a0 57 c5 bd f1 d8 1f be a0 37 04 be 01 53 a8 3d
       -0.09635854 -0.156101 -0.12911844 0.08218957
0002d0 47 1f 74 3c 5a 80 49 3e 02 f6 c3 3d 2e a0 be 3d
       0.014900035 0.19677868 0.09568407 0.093078956
0002e0 40 b1 2f 3e cc 15 62 3e 22 fc 09 bd cf 3e 1c 3d
       0.1715746 0.22078627 -0.03368772 0.038145836
0002f0 bc 18 33 3d 2d d1 70 be 06 d5 b8 3c 5d 06 3e 3e
       0.04372476 -0.23517294 0.022562515 0.18557115
000300 31 1a 5f 3c 27 38 23 3e 40 9d 03 be 49 d3 eb 3c
       0.013617084 0.15939389 -0.12852955 0.028787272
000310 f3 69 5a be f7 12 59 3d 69 20 ec bd 68 b9 16 3e
       -0.21329479 0.052996602 -0.11529619 0.14719164
000320 bf 11 95 3e d4 63 fe 3c a7 87 8d bc ed 76 86 bd
       0.29115102 0.031053461 -0.017276598 -0.06565652
000330 a7 30 b1 bd a7 84 b0 bd 86 81 22 bd d4 f5 0b be
       -0.08651858 -0.086190514 -0.039674304 -0.13667995
000340 31 46 15 be cc c0 9a bd 64 d4 11 be 8e 72 af 3d
       -0.14577557 -0.07556304 -0.14241177 0.085667714
000350 77 0e 1a bd de e3 4c 3e 9d 37 b8 3d 94 d7 89 3d
       -0.03761145 0.200088 0.089949824 0.067305714
000360 c2 99 1f 38 f2 c7 25 3e 23 0b be bc 99 24 58 3d
       3.8051752e-05 0.16189554 -0.02319867 0.052769277
000370 25 ca dc bd 58 b9 2f bd ab e6 50 be 87 52 e2 bb
       -0.107807435 -0.042901367 -0.20400493 -0.0069068107
000380 b6 05 97 bd 07 f1 01 be c0 9d 3e be 71 d1 9d bd
       -0.07374136 -0.12689601 -0.18614864 -0.077059634
000390 57 7e 9a bb 67 a5 91 bd 7a 60 e9 3c 8f 88 39 3d
       -0.004714768 -0.07111626 0.028488386 0.045296248
0003a0 f5 b6 73 bd 25 21 0e 3e 1b 79 0c be 01 69 b8 bd
       -0.059500653 0.13879831 -0.13718073 -0.09004403
0003b0 ca 6b 8c 3d fc 98 a5 3c 54 a1 16 3e 08 25 82 3d
       0.06856497 0.02021455 0.1470998 0.063547194
0003c0 4b 0d aa 3e cb 8f bc bd 7f 17 e9 3d a8 e2 20 be
       0.33213267 -0.09207114 0.11381435 -0.15711462
0003d0 c2 04 5d 3d 66 6a 31 be 7f 2a ed bc e3 af e4 3d
       0.053959616 -0.17325744 -0.028950928 0.1116636
0003e0 d0 e0 81 3e 29 a7 0a be 85 76 4e be 28 02 79 be
       0.2536683 -0.13540329 -0.20162399 -0.24317229
0003f0 9d 94 2e 3d 57 f0 91 bc 61 a8 8e be 55 c9 3a 3d
       0.042622197 -0.017814798 -0.27862838 0.04560216

lstm.weight_hh_l0 f4 [64, 16]
000000 76 a7 86 bd 71 5a bf 3c c0 d2 9e bd d7 6a 12 bc
       -0.065749094 0.023358556 -0.07755041 -0.008936605
000010 be 17 a8 3c bb da 38 3e 22 aa 80 3e 8f 3b f5 bd
       0.020519134 0.18052189 0.251298 -0.119742505
000020 8d 25 78 3e 42 22 3d 3e 13 83 20 3e 3a d6 04 3e
       0.24233074 0.184701 0.15675001 0.12972346
000030 e1 85 04 bc 07 da 8c bd 9d 73 52 3e 34 48 39 3e
       -0.00808856 -0.06877523 0.20551915 0.1809395
000040 b1 12 18 be 9a 08 8d bd 14 ad 00 bd f8 93 8f 3e
       -0.1485088 -0.06886406 -0.03141506 0.2804258
000050 dc fd 73 3e 23 7c c5 bd 18 ee 13 3d d6 aa 00 3e
       0.23827308 -0.09642818 0.036115736 0.12565169
000060 83 47 20 3e 7b 18 a6 3e 9a 4a 49 3e 1c bb 8f be
       0.1565228 0.32440552 0.19657364 -0.2807244
000070 d2 b3 a5 3e 60 80 13 be 47 43 1e 3e 35 d1 f8 bd
       0.32363755 -0.1440444 0.15455352 -0.12149278
000080 a2 74 83 bc 1e c0 8b 3e 82 0a 02 be 07 ac 15 3e
       -0.016046826 0.2729501 -0.12699321 0.14616404
000090 87 72 89 3e 49 5a 71 3d b0 dd 96 3e 71 9e d2 bd
       0.2684519 0.058923993 0.2946601 -0.102841265
0000a0 ee 75 9f bd c3 59 a0 bd 26 ae ff 3c f2 cc 5f be
       -0.07786165 -0.07829621 0.03121097 -0.21855524
0000b0 60 bc ee bd 3d 47 4c bd 36 9f ac 3e 79 0b 6d bd
       -0.116570234 -0.049872626 0.33715218 -0.05787227
0000c0 0e 64 06 3e fc b9 88 3e 3c 4e 65 3e 96 67 b4 bd
       0.13124105 0.26704395 0.22393125 -0.0880882
0000d0 7a eb 06 3c ba d3 98 bc 44 78 b4 bc 1f 4a b4 3e
       0.008234853 -0.018655647 -0.022030003 0.352128
0000e0 52 38 13 3d 7a b3 71 3e 2c 3d a7 3d 7b 88 84 3d
       0.035942383 0.23603621 0.081659645 0.06471344
0000f0 70 cb 80 3e 46 c5 87 bd 96 53 84 3d e5 28 f4 bd
       0.2515521 -0.06629424 0.06461255 -0.119218625
000100 bd e4 16 3e 34 b4 5a 3e cf b9 44 be fa 74 b9 bc
       0.14735694 0.21357805 -0.19211505 -0.022638787
000110 c9 e5 8d 3d 5e 12 4d 3d 0c 7c 8d 3e 1c 20 94 3e
       0.06928594 0.050066344 0.27633703 0.28930748
000120 f7 2c 82 3e d3 11 80 3e d5 b4 8f be 70 97 78 be
       0.2542493 0.250136 -0.2806765 -0.24276519
000130 5f a4 4c 3e 91 2a 92 be 1e 69 ce 3d 52 c7 4b be
       0.19984578 -0.285481 0.10078643 -0.19900253
000140 36 e2 66 be 31 f7 a8 3d 17 50 0f 3e 93 0c 66 3e
       -0.2254723 0.08250273 0.13995396 0.22465734
000150 e2 de 85 bd 1a 92 1e be bb 56 6b 3e 1a 64 0e 3e
       -0.06536652 -0.15485421 0.22982304 0.13905373
000160 6e c2 86 bc 72 0e b0 bd 28 2d e1 3a ea f5 eb 3c
       -0.016450133 -0.08596505 0.0017179595 0.028803784
000170 fd 40 06 3e b4 e9 a3 bd 71 28 ae 3e 2c b5 11 3e
       0.13110729 -0.0800356 0.3401523 0.14229268
000180 a4 c2 4e be 6a 07 5c 3e 52 0e 89 3e 2a b3 a1 bc
       -0.20191437 0.21487203 0.26768738 -0.019738752
000190 60 4a 2e be 52 15 7e be 03 68 99 3e 3a 5f c9 3d
       -0.1702056 -0.2481282 0.29962167 0.09832616
0001a0 47 3a 2f bd b1 68 79 3e f6 c1 d0 bd 77 32 9e be
       -0.042780187 0.24356343 -0.10193245 -0.30897877
0001b0 1c 1a 1e bc 79 7c ae bb 5a 23 65 3d b4 e4 3a be
       -0.00964978 -0.005324897 0.055941917 -0.18251306
0001c0 d5 f7 82 bd 98 17 40 bd 6a 1c f2 3c 74 aa da bd
       -0.063949265 -0.0468975 0.029554565 -0.106770426
0001d0 cb 71 9e 3d 66 1d e9 bd 01 04 7d 3e 37 d6 87 3e
       0.07736548 -0.113825604 0.24708559 0.2653062
0001e0 cb 5d 9e 3e 29 33 a4 3e 2c 25 54 bd 31 95 98 ba
       0.30930933 0.32070282 -0.051793262 -0.0011641142
0001f0 26 2f e0 3d 96 a6 9b 3c 28 9f 8f bd ea f0 ce bd
       0.10946493 0.019000333 -0.070127785 -0.101045445
000200 31 9c 45 be b3 85 da 3d 3e de 44 3d 12 47 c3 bd
       -0.19297864 0.10670032 0.04806351 -0.0953504
000210 be 98 0a be 1b 33 0c bc 98 48 15 3e e6 64 7e 3d
       -0.13534829 -0.008557106 0.14578474 0.062107943
000220 9e 1e 22 bd 1c 6f 3a bd 04 a1 8b 3d 99 bc 2a 3d
       -0.03957998 -0.04551612 0.06817821 0.041683767
000230 fd 6c f7 bd f7 fc 41 be 37 65 5b 3e b3 be c8 bc
       -0.12081335 -0.18944155 0.21425329 -0.024504995
000240 4d 01 6c be b9 09 8e 3e eb 1d a0 bd 84 ed 95 3e
       -0.23047371 0.27741793 -0.078182064 0.29282773
000250 29 0c c6 bd 50 89 17 be 8e 56 6f 3d 80 1f 9d bd
       -0.09670288 -0.14798474 0.058432154 -0.07672024
000260 cd 99 a9 bc 82 55 16 3e 5c d4 0b be 71 45 5a bd
       -0.02070322 0.14681056 -0.13655227 -0.05328888
000270 20 a7 83 3e ae 23 9c be 3e ca 39 3e 69 1f 9a bc
       0.25713444 -0.3049597 0.18143556 -0.018813806
000280 74 10 a7 be 9d 00 39 bc c8 3a 18 3e 10 ad 47 3e
       -0.3262974 -0.01129165 0.14866173 0.19499612
000290 1b 62 5b 3e 3c 0c 58 bc e4 0c 88 3e 2a 0b 2e bd
       0.21424143 -0.013186511 0.26572335 -0.042491116
0002a0 8d 76 e3 3d 3a 87 32 3e 0e 02 00 3e dd e9 2c be
       0.11106596 0.17434397 0.12500784 -0.16886087
0002b0 bd a4 ad 3d 58 7e a8 bd 7d 73 6f bd 5c a2 8d 3c
       0.08478687 -0.08227223 -0.058459748 0.017289333
0002c0 75 53 4e be ec 99 24 3e 46 47 1b 3e 97 68 aa 3d
       -0.20149024 0.16074342 0.15163907 0.0832073
0002d0 51 9f 86 3e d3 cb 61 be 77 4f 76 3d 34 48 24 be
       0.26293424 -0.22050409 0.060134377 -0.16043168
0002e0 a1 d0 0b be c8 1c 30 3e 59 03 ef bd 29 e5 05 be
       -0.13653804 0.17198479 -0.116705604 -0.13075699
0002f0 71 a1 d1 bd e8 ce ba bd 33 68 19 3d 76 6a 0b 3e
       -0.10235871 -0.091214955 0.037452888 0.1361483
000300 c8 41 30 be 76 3c ac 3e ec ab 8f bd b2 84 1e be
       -0.17212594 0.33639878 -0.07015213 -0.15480307
000310 ff 53 ad 3d c0 17 62 bd 26 9d 41 3e dc a7 cf 3d
       0.084632866 -0.05519843 0.18907604 0.101394385
000320 09 a1 3f 3d e0 c6 0a be 04 32 42 3d 8f 28 35 bd
       0.046784434 -0.13552427 0.04741098 -0.044228133
000330 3f d1 a4 3d b2 9f 90 be 92 d7 34 3d 5e 3c 92 be
       0.08047723 -0.28246838 0.044150896 -0.28561682
000340 6b a0 3c 3e f4 c6 43 3e 45 88 5c bc 52 7e 9a 3d
       0.1842057 0.19118863 -0.013460224 0.07543625
000350 90 8a 49 3c 4e a1 40 3e e5 e4 94 3e d6 4e 35 3e
       0.012301102 0.18811533 0.29080883 0.17705855
000360 1b 90 b8 3c ee 13 bb 3d 3a 7c be 3d 1e 19 72 3d
       0.022529652 0.09134661 0.09301038 0.059105985
000370 fc 22 84 3e 6d 6d c3 ba 4e f3 d4 bd ad 78 cf 3d
       0.2580794 -0.0014909931 -0.10397969 0.10130439
000380 78 2c 03 be 4f e5 1e 3e 87 5e 85 3e d3 b8 4f bd
       -0.12809932 0.15517162 0.2604868 -0.05071337
000390 9d 46 3e bb 4d 60 08 3e 49 73 81 3e ad 52 a4 3e
       -0.0029033788 0.13317986 0.25283268 0.32094327
0003a0 71 3e a0 bd fd 40 66 bc 59 5c 4a 3d 05 67 04 be
       -0.0782441 -0.01405358 0.049404476 -0.12929924
0003b0 06 8e be bc 06 36 50 3c 66 25 5d bd 38 fa 8d be
       -0.023261081 0.012708193 -0.053990744 -0.27729964
0003c0 27 c2 8b be 25 27 8c 3b 35 71 87 bd 12 4b 32 3e
       -0.27296564 0.0042771273 -0.066133894 0.1741145
0003d0 67 93 e0 3d 29 be 60 be 6a e7 3c 3e ca 98 68 3e
       0.10965615 -0.2194754 0.18447652 0.22714534
0003e0 fe cf 27 be 3a fa f4 bd 23 49 56 be f8 90 7f 3d
       -0.16387936 -0.119617894 -0.20926337 0.062394112
0003f0 ad b6 48 3e 03 1b 60 be 68 c6 7d bd bd c0 4b be
       0.19600935 -0.21885304 -0.061956793 -0.19897743

lstm.bias_ih_l0 f4 [64]
000000 35 c3 88 3e b6 44 89 3b f0 2e 06 bd ba d1 25 3b
       0.2671143 0.004189099 -0.032759607 0.0025302009
000010 0a b0 2a be 3e 1a 8d bc 60 24 1f bd c3 fd d8 bc
       -0.16668716 -0.017224427 -0.03885305 -0.02648819
000020 29 75 2b 3e a4 2f 82 bd fb d4 0f 3d fd d5 12 3e
       0.16743912 -0.06356743 0.035115223 0.14339443
000030 6d 9f 98 3e 90 86 82 bb 8c 7a e9 bd cb 46 96 bd
       0.29809132 -0.0039833263 -0.11400327 -0.073377214
000040 2d 7b 19 3d 87 26 a6 3e 5f 03 19 3e 83 1d 3f bd
       0.037470985 0.3245127 0.14942692 -0.046659004
000050 4d 94 21 3e af 3c 52 be 2d fd be bc ab ff 5d bc
       0.15779229 -0.20530961 -0.023314083 -0.0135497255
000060 fb de df 3d 38 96 43 3e 77 cc d0 3b ee 43 85 3e
       0.10931202 0.19100273 0.0063720304 0.2602839
000070 b1 ef 1f 3e 0d bd 17 3e 8b c0 5b bd ea 26 95 3e
       0.15618779 0.14818211 -0.05365042 0.29131252
000080 79 ce a4 3d f6 84 20 3e a6 f9 ac bd 8b 56 20 3a
       0.08047194 0.1567572 -0.08446054 0.00061164115
000090 27 72 29 3e c6 5e 26 be b4 26 22 3e 7d f7 1f 3d
       0.16547452 -0.1624709 0.15835077 0.039054383
0000a0 57 d9 3c 3e 34 d3 4a 3e 01 30 47 bd 13 3e 23 3e
       0.18442284 0.1980713 -0.048629764 0.15941648
0000b0 14 d0 94 3e f2 9f c9 3c 29 8d 07 be 16 dc 7f be
       0.29065 0.0246124 -0.13237442 -0.249863
0000c0 7e 85 90 3e fb 11 8a 3d 9a eb 3a bd 19 79 7c bd
       0.28226846 0.06741711 -0.045634843 -0.061638925
0000d0 29 52 bb 3e ee 90 36 3e e3 43 7b 3e ff 85 86 3d
       0.3658612 0.17828724 0.24537615 0.065685265
0000e0 68 98 84 3e 73 06 b4 3e fa 96 2e 3e 2a c9 44 3e
       0.25897527 0.3516117 0.1704978 0.19217363
0000f0 d1 93 68 3e 3e d4 74 bd f8 dc bd 3d bf 03 23 bb
       0.22712637 -0.059772722 0.09270662 -0.002487406

lstm.bias_hh_l0 f4 [64]
000000 fa b5 b0 3d 4e 49 81 3e e1 91 be 3d 19 3d 63 3d
       0.08628459 0.2525124 0.09305168 0.05547819
000010 a1 26 55 be 77 95 29 3e a3 54 f5 3d a9 98 20 3d
       -0.20815517 0.16560923 0.11979034 0.039208088
000020 a1 13 0d 3e 64 54 07 be 59 24 21 bc f7 72 81 3e
       0.13777019 -0.13215786 -0.009835326 0.25283024
000030 7a 2f 9e 3e a2 6f 6b 3e 1d b1 a9 bd b3 5a dd bd
       0.30895597 0.22991803 -0.08285735 -0.10808315
000040 e8 23 ce 3d 69 7c 52 3e 69 b8 97 bd 9c b0 7a 3e
       0.10065442 0.20555271 -0.0740822 0.24481434
000050 b4 ca c1 bd 53 f7 ef 3d 05 a8 24 3c 3a d7 f9 bd
       -0.09462491 0.11717095 0.010049825 -0.12199254
000060 09 72 98 3e 7b 80 8e bd de 8c d5 3d 66 32 76 3d
       0.29774502 -0.069580995 0.10427259 0.060106657
000070 3a b2 0d 3d 3d dc 2e 3d 4e b3 88 3d 12 cf 6a 3d
       0.0345938 0.042690504 0.06674825 0.057326384
000080 c7 fe 02 3c be e7 cc 3d a2 33 68 3e 7c a8 36 be
       0.007995314 0.10005139 0.22675946 -0.17837709
000090 ac 13 cd 3d 12 5e 88 bc 4e 83 24 3c 0b 8e 9f 3c
       0.10013518 -0.016646419 0.010041071 0.019476911
0000a0 c1 d7 ff 3d ed c7 0d 3e d4 9b e1 3d 92 6d 0d be
       0.12492324 0.13845797 0.1101605 -0.13811329
0000b0 36 f6 71 bd 2c db 43 be 1f bb 1a 3e 94 8e 0c be
       -0.059072696 -0.19126576 0.15110444 -0.13726264
0000c0 58 58 03 3d 3f ee 0f 3e 04 17 11 3d 89 e1 b1 3d
       0.032066673 0.14055727 0.03542234 0.086855955
0000d0 27 cc 6c 3e 68 60 b5 3c 26 9c b0 3e b0 45 ca bc
       0.23124753 0.022140697 0.34494132 -0.024691433
0000e0 81 42 83 3e d4 96 a0 bd 67 bc 2b be 8b 42 98 3e
       0.25636676 -0.07841268 -0.16771089 0.29738268
0000f0 49 21 41 3a 4e a2 1a 3e 8e 40 e8 3d e2 db 2a 3e
       0.00073673256 0.15100977 0.11340438 0.16685441

lstm.weight_ih_l0_reverse f4 [64, 8]
000000 01 71 4d be 61 66 68 3d 37 72 31 be 18 cb 4e 3d
       -0.20062639 0.05673826 -0.17328726 0.050486654
000010 bc 15 60 be ef 3a c1 3d f8 43 08 3e 99 e1 05 be
       -0.21883291 0.09435069 0.13307178 -0.1307434
000020 58 1a 9c 3e c9 06 3c bd 98 d5 45 be 05 7f a4 be
       0.3048885 -0.04590491 -0.19319761 -0.32128158
000030 a4 3b 72 3d e2 f4 45 bd 6d 37 a2 bd 80 13 ae bd
       0.05913891 -0.04832924 -0.07920728 -0.08499813
000040 13 b0 48 be 9e 44 99 3e 0f bf 31 3e 5a e3 ab 3d
       -0.19598417 0.29935163 0.1735804 0.08392973
000050 65 8d fd bd c7 12 14 be 56 58 97 bd ef 97 0f 3d
       -0.123804845 -0.14460288 -0.073898956 0.035057005
000060 a7 49 6a 3e 54 df 4b 3e 08 11 fb 3d 25 4d ba 3d
       0.22879659 0.19909412 0.12259108 0.090967454
000070 ba 3e 7d 3e 09 87 d7 3b ed 81 c8 3d 86 eb 8c 3e
       0.2473096 0.0065773767 0.097904064 0.2752344
000080 a6 ea 78 bd 1d 89 3f 3e d2 16 53 be 0f 60 f5 3d
       -0.060770653 0.18704648 -0.20614174 0.11981212
000090 4c b4 4f 3d f1 54 03 3d d1 10 49 be 81 9d c1 3d
       0.050709054 0.03206343 -0.19635321 0.094538696
0000a0 d7 ad 90 3e 75 51 7f 3c c3 9d 70 bc 49 87 92 be
       0.2825763 0.015583386 -0.014686051 -0.2861884
0000b0 96 65 0b 3e 92 7d 0f be 66 8d 09 be 81 80 32 bc
       0.1361297 -0.14012745 -0.13432845 -0.0108948955
0000c0 80 69 fb 3c 2c 8c cc 3c f3 19 1d 3e c9 6f 44 3e
       0.030689955 0.024969183 0.1534193 0.19183268
0000d0 8f d5 04 be b3 10 86 bd 1a e3 45 be 01 b4 00 3e
       -0.12972091 -0.06546154 -0.19324914 0.12568666
0000e0 58 cc 2d 3e 25 9e 3d be a7 a4 3e bd 05 6c 35 be
       0.16972482 -0.18517359 -0.046543743 -0.17716987
0000f0 a2 98 b6 bd 29 5b 5a be c3 04 45 3e 4e 63 45 be
       -0.08915831 -0.21323837 0.19240098 -0.19276163
000100 d4 82 c1 bd 76 25 ae 3e cc f4 0c 3e ce 86 06 be
       -0.094487816 0.34012955 0.13765258 -0.13137361
000110 d7 31 8c bd 3a 5a f7 bc 35 09 5a 3d 97 56 8c 3e
       -0.06845444 -0.03019439 0.053231437 0.27409813
000120 a4 95 09 3d 41 64 1e 3e 3d c0 99 3d 92 fe 7f 3e
       0.033589974 0.15467931 0.0750737 0.24999455
000130 2f 06 18 3e aa 01 cc 3d 92 8e 8b 3d f5 44 61 bd
       0.14846109 0.09961255 0.068143025 -0.054997403
000140 f4 91 0b 3e a6 a3 58 be 48 56 8b 3c 9b 31 6c be
       0.13629895 -0.21156177 0.017008916 -0.23065798
000150 7c 95 ea 3c 63 4d 3a be 37 f5 8e bd e1 f9 50 be
       0.028635733 -0.18193583 -0.06980365 -0.20407821
000160 56 8f 0e 3e 27 cc 8c 3e 45 fa 0c 3d 36 46 6a be
       0.13921866 0.27499506 0.034418363 -0.22878346
000170 99 cb 32 be 25 11 0d 3d 08 09 2b 3e 63 58 5e be
       -0.17460479 0.03444018 0.16702664 -0.21713404
000180 0c f8 07 be 8d 5a 9a bc 3e 55 58 be 3b 67 a3 bd
       -0.13278216 -0.018842006 -0.21126267 -0.07978674
000190 03 c8 77 be 03 d2 80 3b be b4 07 be e9 22 48 be
       -0.24197392 0.0039312853 -0.13252541 -0.19544567
0001a0 2c 5d 9d 3e 01 6f 9d bb d3 95 66 bd ac bb 2f 3b
       0.30735147 -0.0048044925 -0.056295227 0.0026814742
0001b0 21 dc 17 3e 7d 47 0d 3c 1a ba 7e bd 43 ae 89 3d
       0.14830066 0.008623001 -0.0621892 0.06722691
0001c0 cb fb 80 3e 60 f3 6b be 46 63 80 be 7b f4 4b be
       0.25192103 -0.23042059 -0.2507574 -0.1991748
0001d0 74 0f 11 3e 87 fc 03 3e 4f 02 7f 3c 90 17 55 be
       0.14166051 0.128893 0.015564515 -0.2080977
0001e0 97 04 c2 bd 07 c2 92 3e 46 4d 62 3e 54 93 60 be
       -0.09473532 0.28663656 0.2209979 -0.21931201
0001f0 0f dc ac 3d 1e 0e 36 be a5 1a 23 3c e3 04 cc bb
       0.0844041 -0.17778823 0.009955083 -0.0062261685
000200 99 7f 01 be 29 c8 4f bd 0c ce 0f 3e 79 4f 40 bd
       -0.12646331 -0.050727997 0.14043444 -0.04695079
000210 6f 45 b2 3d fd 18 ef bd 79 e5 80 bd 98 a6 20 be
       0.0870465 -0.11674688 -0.062937684 -0.1568855
000220 3c 99 da bd 39 2b 65 3e 9d 55 cd 3a 10 7a 8b be
       -0.106737584 0.2237977 0.0015665774 -0.27241564
000230 ad 9e e0 bd c8 cb 31 be 96 e8 8b bd 7f d3 55 3e
       -0.10967765 -0.17362893 -0.068314716 0.2088146
000240 6c 65 61 3d 67 92 08 3d dc 6e 72 be 55 ec aa be
       0.055028364 0.033342745 -0.23675102 -0.33383432
000250 7f 57 35 bc ed b5 d7 bd bf 01 c0 3d 7a 67 00 3e
       -0.011068224 -0.105327465 0.09375333 0.12539473
000260 17 02 41 3e 13 99 7f 3e 87 d3 7b be a6 b2 9c be
       0.18848453 0.24960737 -0.2459241 -0.30605048
000270 a9 6d e3 3d c3 c4 86 bd 35 d4 1e be 8d 53 3b bc
       0.111049004 -0.06580498 -0.15510638 -0.011433494
000280 8f db f0 3c 3c 4b be 3d 87 4a bd bc 15 45 36 3d
       0.029401569 0.092916936 -0.023106826 0.044499476
000290 e5 45 10 3e a5 fd 5b 3d de 31 55 be c3 bb a0 bd
       0.14089163 0.05370869 -0.20819804 -0.07848313
0002a0 74 58 90 3e af 32 db 3d db e4 13 be a3 d8 b8 be
       0.28192484 0.107030265 -0.1444277 -0.3610278
0002b0 17 1c b0 3c 4e 77 17 3d 79 60 cc bd 7d ff 40 3b
       0.02149777 0.036979012 -0.09979338 0.0029449158
0002c0 45 80 52 3e be c2 e2 3c 6b 4b 81 3d 0a 39 44 be
       0.20556743 0.027680751 0.06313213 -0.19162384
0002d0 5a a1 1e 3e a5 d7 e2 3d 39 b4 2b 3e 41 f1 aa bc
       0.15491238 0.11076287 0.16767968 -0.020866992
0002e0 34 4b 38 3e 69 9c f9 bd 58 53 39 bd ad 90 4c bd
       0.17997438 -0.12188036 -0.0452455 -0.04994266
0002f0 95 1f 2d be 1e b5 f3 3d 7d 42 0c be d6 78 8d 3c
       -0.16906579 0.1189978 -0.13697238 0.017269533
000300 86 74 90 3e db ad b9 3c b4 cc 55 be ca 1b 17 be
       0.282139 0.022665909 -0.2087887 -0.14756694
000310 5d fb 7c 3d 4c 27 96 bd 6e a0 8f be 6d 5a 02 3e
       0.061763156 -0.07331714 -0.28052086 0.12729807
000320 ff 98 16 3e 18 2c 44 3e d1 6c f7 bd c3 2e 24 3e
       0.14706801 0.19157445 -0.12081302 0.16033463
000330 f6 36 e0 bd 0d 45 0c be 2f aa 74 3e 52 69 80 be
       -0.10947983 -0.13698216 0.23893045 -0.25080353
000340 b7 f2 df 3d 21 18 6a be 47 f5 57 3e 8c 84 85 bd
       0.10934966 -0.22860767 0.2108966 -0.06519422
000350 69 6f 80 bc 30 c2 d0 bd eb 1d 41 be d7 47 88 3d
       -0.015678125 -0.10193288 -0.18859069 0.06654327
000360 d7 8d 94 3e 74 27 27 3e 87 47 7e bd 7b 36 b1 be
       0.29014465 0.16323644 -0.062079933 -0.34611878
000370 d7 92 a4 3c 19 da e2 3d 02 3b 0a 3d 2d f9 9b 3e
       0.02008955 0.11076755 0.03374768 0.30463544
000380 5a 03 83 be 2a 23 38 3e 73 a6 d7 bc 85 42 33 be
       -0.25588495 0.17982164 -0.026324486 -0.17505844
000390 44 d1 2b 3e e9 e7 37 3e da 15 f5 3c ff 44 fd 3d
       0.16779047 0.1795956 0.029917646 0.123666756
0003a0 73 fe bb bd 6a 0c d2 bd 98 e6 8a 3d 21 b6 c4 3c
       -0.09179392 -0.10256274 0.067822635 0.024012627
0003b0 ce 72 36 3d bf cf f7 3d a8 ec ef bd a4 1a 54 3e
       0.04454308 0.12100171 -0.117150605 0.20713288
0003c0 1f 57 d8 3c 6e 76 27 3e fd 02 a1 3d 66 9a 39 3d
       0.02640873 0.16353771 0.07861898 0.04531326
0003d0 e2 34 fa bd bf f9 a4 bc b0 5c 60 bd 46 b2 52 bd
       -0.12217118 -0.02013862 -0.054775894 -0.051439546
0003e0 5f ac 48 3e 3f d4 cf bd 3a 27 14 be ac 6d 60 be
       0.19597004 -0.101479046 -0.14468089 -0.21916837
0003f0 45 3c 5f bd 25 2a 1e 3e d1 4f b1 3d 0c 28 dd 3c
       -0.054500837 0.15445764 0.08657802 0.026996635

lstm.weight_hh_l0_reverse f4 [64, 16]
000000 5a 8a 46 be 18 fa 29 3e 6d 44 c9 3c dc 08 d4 3d
       -0.19388714 0.1659931 0.02456876 0.10353252
000010 d7 2b 91 be 42 bd 57 3d 80 35 7d be dd 06 7c be
       -0.2835376 0.052670725 -0.2472744 -0.24611993
000020 95 87 8d be 2b 92 ef 3d ba b5 51 be 0d 95 6b be
       -0.27642503 0.11697801 -0.2047948 -0.23006077
000030 3b cc 84 bd 98 f4 7d bd 1f 85 5f be 79 07 dc 3d
       -0.06484266 -0.06200084 -0.21828125 0.10743613
000040 ce f2 ed 3d ed 73 c3 bc 8e 96 d4 bc 13 3a b7 bc
       0.11618577 -0.023858989 -0.025950696 -0.02236656
000050 1e a0 99 3d 19 be 25 3d bb d4 6e 3e ef 16 21 3d
       0.07501243 0.040464494 0.23323338 0.03932851
000060 2b 3b 30 3e 0e 2c 8b bd ff b3 e4 bd ec 26 a5 3e
       0.17210071 -0.06795512 -0.11167144 0.32256258
000070 36 3e dc 3d 26 96 14 bd 1a 06 9a 3d 98 a6 5c 3d
       0.10754053 -0.036276005 0.07520695 0.053869814
000080 6b 69 73 be 82 49 0d 3e d7 93 19 3d 59 e6 91 3d
       -0.23770683 0.13797572 0.037494507 0.071240135
000090 03 d1 90 3e d8 c7 0f be 8e 6d d2 bd 63 2f c9 bd
       0.28284463 -0.14041078 -0.10274802 -0.098234914
0000a0 59 b5 72 3e 0e d8 0f 3e 3c 14 02 be ba 57 9f 3e
       0.23701991 0.14047262 -0.12703031 0.31121618
0000b0 24 49 7d bd 62 59 4a be 1a 44 38 3e f2 af 82 3e
       -0.06183733 -0.1976066 0.17994729 0.2552486
0000c0 8d 43 0d 3e 09 da a7 bc 0f 3a 91 bd 8e 96 9b 3e
       0.137953 -0.02048971 -0.07091152 0.30388302
0000d0 28 7d 4b 3e 25 42 b7 bd d6 2f c9 bd 39 1a 3a 3c
       0.19871962 -0.08948163 -0.09823577 0.011358791
0000e0 81 76 17 3e fd e1 0c 3e 00 c8 39 be d0 63 4d 3e
       0.147913 0.13758083 -0.181427 0.20057607
0000f0 55 f3 6f bb cc e5 21 be fa 5d 67 3d d7 41 7e 3e
       -0.0036613543 -0.15810317 0.056486107 0.24829803
000100 5a 22 91 bd d7 d2 b4 3d 79 21 94 be b8 2d ee 3c
       -0.0708663 0.08829277 -0.28931788 0.029074535
000110 64 c9 a8 bc 4a fe 52 3c e5 85 2c 3c 6f 44 b1 bd
       -0.020603843 0.01287801 0.01052997 -0.08655631
000120 ec 99 15 39 21 14 47 3d c0 d0 10 3e 2b cb ae 3e
       0.00014267088 0.04860318 0.14142132 0.3413938
000130 87 46 bf bc 0d 6e 94 3d bd 7f 38 bd fb f5 fc 3d
       -0.02334906 0.07247553 -0.045043696 0.123516046
000140 57 e3 c2 bd 9e a8 69 3e 1d 23 6d be 53 6b 5d 3e
       -0.09516018 0.22818229 -0.23157926 0.21622972
000150 bb 31 b6 3e 4f 04 24 bd c6 47 fb bd 22 53 0b 3d
       0.35584816 -0.04004317 -0.12269549 0.03401483
000160 cd 98 5d 3e 9e 1e 11 3e 55 ec 2f 3e 91 da 44 bc
       0.2164032 0.14171836 0.17179997 -0.012015001
000170 77 44 76 3e 93 23 bc be 9e df 84 3e d7 d1 03 3e
       0.24049555 -0.3674589 0.25951856 0.12873016
000180 65 c4 18 be d7 c0 50 be 64 57 46 3d 28 95 d4 bd
       -0.14918669 -0.20386063 0.048423186 -0.10380012
000190 c8 b4 74 3e f0 5c ba 3d 64 e8 ab 3d 11 68 cc 3d
       0.23897088 0.09099758 0.08393934 0.099807866
0001a0 4d c9 82 3e 97 7c 1a 3e 9b 41 6a 3c dc 3f 88 3e
       0.25544205 0.1508659 0.014297868 0.2661122
0001b0 4e de 63 be 30 fc 38 3e da af 49 be 63 cf a7 bd
       -0.22252771 0.18064952 -0.19695988 -0.08193853
0001c0 88 83 01 3e bc a8 52 be ba 49 fd 3d 9a ae 16 be
       0.12647831 -0.2057218 0.12367578 -0.14715043
0001d0 4f 2d 46 be a6 c1 8d 3c c1 42 3f 3e ff 7c a1 bd
       -0.19353221 0.017304253 0.18677808 -0.07885169
0001e0 3f 9d 83 be 0d ea 48 3e 9f d0 82 3d 06 f9 3a 3e
       -0.25705907 0.19620533 0.063874476 0.18259057
0001f0 59 e3 67 3e 8d d8 6b 3e 50 89 bb 3d 5f cb 8d be
       0.2264532 0.23031826 0.0915705 -0.27694222
000200 c3 38 40 3e db c0 09 3d 3c 3b d5 3b 6a bb 18 be
       0.18771653 0.033631187 0.0065073054 -0.14915243
000210 7c ed 19 3e 6a c1 0d bc 84 e5 bc 3d c7 00 6d 3e
       0.15032 -0.008652071 0.09223464 0.23144828
000220 7d 11 47 3e 11 ae 46 3d 9c db d7 3d 8b db 99 3e
       0.19440265 0.048505846 0.10539934 0.3005031
000230 e3 2b 81 3e 8d 84 32 be f3 8d b9 3b 59 38 eb 3d
       0.25228795 -0.17433377 0.0056626736 0.11485357
000240 13 4c 55 3e 71 ca 07 be ac fc 35 3e c3 56 0a be
       0.20829801 -0.13260819 0.17772168 -0.1350966
000250 83 90 e3 3d 2d 5a 25 be f6 f7 4f 3c bb 0f 3e bb
       0.11111548 -0.1614768 0.012693396 -0.0029001075
000260 70 53 1f 3e 33 a0 1c be 9d eb 18 bd 8c d0 05 3e
       0.15559173 -0.15295486 -0.037334073 0.13067836
000270 44 8c dc 3d 65 43 9c 3e 78 83 aa bd 55 2c a5 bb
       0.10768941 0.30520168 -0.08325857 -0.005040685
000280 79 86 26 be 04 d5 09 be 80 21 0f be a1 b3 8f 3e
       -0.16262235 -0.13460165 -0.13977623 0.28066733
000290 30 b5 4a 3e 36 40 f6 3c 33 dc 98 3c 9b e3 f0 3c
       0.1979568 0.030059915 0.018659687 0.029405406
0002a0 77 db 4b 3e 93 8a e0 3d c6 3f 34 3e d0 b7 10 be
       0.19907938 0.10963931 0.17602453 -0.14132619
0002b0 df 24 89 3c 3d fe 3e be 53 ed 38 3e b6 be 33 3e
       0.016741214 -0.18651672 0.18059282 0.17553219
0002c0 67 b5 b3 bd 6f d6 a0 3e f9 9d db 3d 8b e5 96 3e
       -0.08774834 0.314136 0.1072349 0.29472002
0002d0 51 d6 36 3e d8 87 ac 3e 07 91 2c 3d 5f 3f 5a be
       0.17855193 0.3369739 0.042130496 -0.21313237
0002e0 13 fe 26 3d 22 6b 50 3e 98 39 f4 3d 52 20 71 3e
       0.040769648 0.20353368 0.11925048 0.23547485
0002f0 92 19 fa bd fa 24 97 bd 57 e0 ad 3d d4 51 83 3e
       -0.122119084 -0.073800996 0.08490055 0.25648367
000300 2b 2f 46 3e 3d 41 22 3e 4e 20 1a 3e fb 99 62 be
       0.1935393 0.15845199 0.15051386 -0.22129051
000310 5d 33 d1 bd d9 e4 5d be 7d 13 3c 3d 5d c2 b4 3d
       -0.10214875 -0.2166933 0.045917023 0.08826134
000320 90 cc 44 be 65 70 1f 3e 24 7a 1e be cf 55 9f bb
       -0.1921866 0.15570219 -0.1547628 -0.004862524
000330 7c e2 26 be ea ca a2 3d c4 1a a6 3c 49 4e 64 bd
       -0.16297334 0.07948859 0.020276435 -0.05573872
000340 5f 98 29 3e 53 b2 5b 3e 9d 92 c7 3d b2 df 19 be
       0.16562031 0.21454744 0.09744761 -0.15026739
000350 b8 50 9f 3d 95 b0 15 3e 29 37 92 3e 20 0d 8b 3e
       0.07779068 0.14618142 0.2855771 0.2715845
000360 a4 93 00 3e 93 2f 23 be 28 00 39 3d bd c0 5f 3e
       0.1255632 -0.15936117 0.045166165 0.21850868
000370 84 73 8d 3c 02 ab 78 be da 12 e9 bd 9a c3 b1 3e
       0.017266996 -0.24283984 -0.11380549 0.34719545
000380 f3 71 82 be 2b 92 92 3e 1e 87 d4 bc e2 e6 cc bd
       -0.2547756 0.28627142 -0.025943335 -0.10004975
000390 47 35 7c 3e e4 b5 8f bc 52 f2 07 be 10 b3 3e 3e
       0.24629699 -0.017542787 -0.13276032 0.18622994
0003a0 14 bc 9b bd 1d 67 5c bd 3a 43 07 3d ee 64 60 3d
       -0.076042324 -0.053809274 0.033023097 0.054783754
0003b0 44 5d 51 3c 7c 22 b7 be 63 4e a2 3e 72 f4 a6 3e
       0.012778584 -0.35768497 0.3170043 0.32608372
0003c0 f9 df 25 bd 39 34 9c 3e 1d 05 35 be 9c 01 63 be
       -0.0404968 0.30508593 -0.17677732 -0.22168583
0003d0 5a 6b 71 3e 76 54 43 3e 44 01 70 3e e7 93 44 3e
       0.23576108 0.19075188 0.23437983 0.19197045
0003e0 09 0d 35 be 07 42 11 be 59 ed bb bd 9e 04 92 3e
       -0.17680754 -0.14185344 -0.0917613 0.28519148
0003f0 35 85 8f 3e aa 4b 8c bd 13 eb 87 3e 30 89 02 bd
       0.28031316 -0.06850369 0.26546535 -0.031869113

lstm.bias_ih_l0_reverse f4 [64]
000000 09 67 54 be 46 2b 75 3e 74 3d 3a 3e 18 7b 0b bc
       -0.2074243 0.23942289 0.18187505 -0.008513235
000010 31 40 86 3e 0e 57 e8 3d 70 04 e6 bd 53 bf 8b be
       0.2622085 0.11344729 -0.11231315 -0.27294406
000020 54 94 f6 bc c0 ef e2 3d 06 7d a3 bd 33 bd 86 3d
       -0.030100025 0.11080885 -0.07982831 0.06579056
000030 b3 c8 5e be d5 63 3f bc 04 31 a2 3e 5e 81 bb bd
       -0.21756248 -0.011681517 0.3167802 -0.09155534
000040 1c d5 53 3d 02 68 e4 bc bc 00 0e 3e d8 09 8b 3e
       0.05171691 -0.027881626 0.13867468 0.27155948
000050 4f 14 8b 3e 4d 36 4d bc 1c 0f 9c bd 68 b4 7b be
       0.27163932 -0.012525153 -0.076200694 -0.24580538
000060 8c f9 08 bd 85 59 5a be 01 02 2f be a5 17 62 bd
       -0.03344111 -0.21323211 -0.17090608 -0.05519833
000070 3d 32 44 3e c8 e9 61 3e a5 85 af 3e d1 25 a1 3e
       0.1915979 0.22061837 0.3428165 0.31474164
000080 37 9d 4d be 0b 8a 57 3e 5f 2b 6e be 09 4b 63 bd
       -0.20079504 0.21048753 -0.23258732 -0.05549148
000090 fb 8a b2 bd 2e 4c 73 3c ad be 4f 3e 82 c9 47 3e
       -0.08717915 0.014849706 0.20287581 0.19510463
0000a0 36 58 df 3d 62 1b cd 3c b4 12 04 3e 01 cf c2 3e
       0.10905497 0.025037471 0.1289776 0.38048556
0000b0 a5 37 02 be 22 4a 61 be 6c 25 a6 bd af 0f c6 bc
       -0.12716539 -0.22000936 -0.081126064 -0.0241774
0000c0 b1 d7 ea bd c2 c7 34 3e 6a dd a0 3e 8b c8 49 3e
       -0.11466921 0.17654327 0.31418926 0.19705407
0000d0 53 7f e8 3d bf 0e 78 3e 2e a4 d6 3c 52 9b bf bd
       0.1135241 0.24224375 0.026201334 -0.09355797
0000e0 d3 33 31 bb bc 55 eb 3d 4d 08 38 be 7f ec 6a 3d
       -0.0027038946 0.11490962 -0.17971916 0.057354447
0000f0 90 95 9d bd 8e 90 2f 3e bf c8 09 3e 83 87 88 3d
       -0.076945424 0.17144987 0.13455485 0.06666472

lstm.bias_hh_l0_reverse f4 [64]
000000 31 f0 49 be 4b 30 52 bd 83 8b 89 bd 16 d5 47 3e
       -0.19720532 -0.051315587 -0.06716063 0.1951488
000010 4d b0 12 3e be 4e 10 3d c6 05 23 be 79 f3 8b be
       0.14325066 0.035231344 -0.15920171 -0.27334192
000020 5c 5c 85 3e f6 fd 09 3e 0f 87 b1 bd d7 ff 50 3e
       0.26047027 0.13475785 -0.086683385 0.20410095
000030 6a ad 90 bd cf 1f 2d 3e b7 50 5c 3c 53 c0 2d 3e
       -0.07064326 0.16906665 0.013446978 0.16967897
000040 58 f5 40 3e e8 cf 19 3d de 15 ed bd 70 b5 4e 3e
       0.18843591 0.03755179 -0.115764365 0.201864
000050 06 fa 7f 3e 52 e3 3d 3a ba 6c a9 3d 26 bc 02 3e
       0.2499772 0.0007243651 0.08272691 0.12767085
000060 e4 b1 55 bd 2d 97 9e 3c eb c2 6c 3e 23 d0 a2 3d
       -0.052171603 0.019359196 0.2312123 0.07949855
000070 ad 59 04 3e bd 6c 57 3e 07 b5 97 3e 21 fe bf 3e
       0.12924834 0.21037574 0.296303 0.37498572
000080 0b 3a 04 3e ef f7 a1 3d a0 a0 9a bd 01 e3 0e bd
       0.12912767 0.07908618 -0.07550168 -0.034884457
000090 01 24 5b 3e d0 9a ac 3e d8 32 f7 3d d0 31 4b be
       0.21400453 0.33711863 0.120702446 -0.1984322
0000a0 dd 58 3d 3e 78 21 51 3e 48 03 11 3e 4f 79 be bd
       0.1849093 0.20422924 0.14161408 -0.093004815
0000b0 b1 27 80 3d b8 b5 e5 3d e8 05 98 bd e6 bb 5d bd
       0.062575705 0.11216301 -0.074230015 -0.054134272
0000c0 e8 7c 5d 3d eb e6 9d 3d 1c a0 ce 3e 1e 5e 1d 3d
       0.054074198 0.0771006 0.4035653 0.038419835
0000d0 70 1b 9a 3e de fd 04 3e 10 73 ff 3d e8 cc 62 3d
       0.30099058 0.12987468 0.12473118 0.055371195
0000e0 9b 9c 28 3e c5 d1 9e bd 26 7f 3c 3e 27 9f a2 3d
       0.1646599 -0.07754854 0.18407878 0.07940512
0000f0 5c e4 af 3d 75 53 59 3e 27 57 30 3e 75 ba 49 3e
       0.08588478 0.21223243 0.17220746 0.19700034

classifier.weight f4 [1, 32]
000000 52 14 bb bd 48 15 a4 3e 47 dc 4e 3b 4a 80 be 3e
       -0.09134735 0.32047486 0.00315644 0.37207252
000010 98 80 1c 3e 1a ca bd 3e 77 6d 44 3d 8c 0b 4a bd
       0.1528343 0.37068254 0.047955956 -0.04932742
000020 f3 3c be 3e 47 a6 cc bd cd 09 e5 bd 28 bc 66 3e
       0.37155876 -0.099926524 -0.1118351 0.22532713
000030 6a b5 04 bd de a1 a0 bd d1 aa 97 3e 0e ea 54 3e
       -0.032399572 -0.07843374 0.2962251 0.2079241
000040 af 3b f4 bc 00 5b 9a 3e 17 04 10 3e ca 98 9e 3e
       -0.029813616 0.30147552 0.1406406 0.30975944
000050 b7 c1 25 3e 3b 16 bd bd 94 f9 ab 3e 14 7d bc 3e
       0.16187178 -0.09232756 0.3358885 0.36814177
000060 97 75 a5 3e f0 58 29 3e 5a 71 da bd 2c 00 ad bc
       0.32316276 0.16537833 -0.10666151 -0.021118246
000070 a8 82 9a 3e 19 14 b8 3c f2 53 a9 3e 22 59 fe bc
       0.30177808 0.02247052 0.33071858 -0.031048361
